…
L_PATH='C:\\WorkSpace\\FadingChannels\\Swetha_M20AIE317_MTP\\Fading\\20230726_035537\\model_faded', PLOT_PATH='C:\\WorkSpace\\FadingChannels\\Swetha_M20AIE317_MTP\\Fading\\20230726_035537\\plot_faded')
use_cuda:  False

 
 ###############################################################################################
Training Model for : block length => 10 coderate_k => 1 coderate_n => 3 channel => awgn mod type=> QAM2
using random interleaver [2 8 4 9 1 6 7 3 0 5] [3 5 1 2 9 8 0 6 7 4]
Channel_ModAE(
  (enc): ENC_interCNN(
    (enc_cnn_1): SameShapeConv1d(
      (cnns): ModuleList(
        (0): Conv1d(1, 25, kernel_size=(5,), stride=(1,), padding=(2,))
        (1): Conv1d(25, 25, kernel_size=(5,), stride=(1,), padding=(2,))
        (2): Conv1d(25, 25, kernel_size=(5,), stride=(1,), padding=(2,))
      )
    )
    (enc_cnn_2): SameShapeConv1d(
      (cnns): ModuleList(
        (0): Conv1d(1, 25, kernel_size=(5,), stride=(1,), padding=(2,))
        (1): Conv1d(25, 25, kernel_size=(5,), stride=(1,), padding=(2,))
        (2): Conv1d(25, 25, kernel_size=(5,), stride=(1,), padding=(2,))
      )
    )
    (enc_cnn_3): SameShapeConv1d(
      (cnns): ModuleList(
        (0): Conv1d(1, 25, kernel_size=(5,), stride=(1,), padding=(2,))
        (1): Conv1d(25, 25, kernel_size=(5,), stride=(1,), padding=(2,))
        (2): Conv1d(25, 25, kernel_size=(5,), stride=(1,), padding=(2,))
      )
    )
    (enc_linear_1): Linear(in_features=25, out_features=1, bias=True)
    (enc_linear_2): Linear(in_features=25, out_features=1, bias=True)
    (enc_linear_3): Linear(in_features=25, out_features=1, bias=True)
    (interleaver): Interleaver()
  )
  (dec): DEC_LargeCNN(
    (interleaver): Interleaver()
    (deinterleaver): DeInterleaver()
    (dec1_cnns): ModuleList(
      (0): SameShapeConv1d(
        (cnns): ModuleList(
          (0): Conv1d(7, 100, kernel_size=(5,), stride=(1,), padding=(2,))
          (1): Conv1d(100, 100, kernel_size=(5,), stride=(1,), padding=(2,))
          (2): Conv1d(100, 100, kernel_size=(5,), stride=(1,), padding=(2,))
        )
      )
      (1): SameShapeConv1d(
        (cnns): ModuleList(
          (0): Conv1d(7, 100, kernel_size=(5,), stride=(1,), padding=(2,))
          (1): Conv1d(100, 100, kernel_size=(5,), stride=(1,), padding=(2,))
          (2): Conv1d(100, 100, kernel_size=(5,), stride=(1,), padding=(2,))
        )
      )
      (2): SameShapeConv1d(
        (cnns): ModuleList(
          (0): Conv1d(7, 100, kernel_size=(5,), stride=(1,), padding=(2,))
          (1): Conv1d(100, 100, kernel_size=(5,), stride=(1,), padding=(2,))
          (2): Conv1d(100, 100, kernel_size=(5,), stride=(1,), padding=(2,))
        )
      )
      (3): SameShapeConv1d(
        (cnns): ModuleList(
          (0): Conv1d(7, 100, kernel_size=(5,), stride=(1,), padding=(2,))
          (1): Conv1d(100, 100, kernel_size=(5,), stride=(1,), padding=(2,))
          (2): Conv1d(100, 100, kernel_size=(5,), stride=(1,), padding=(2,))
        )
      )
      (4): SameShapeConv1d(
        (cnns): ModuleList(
          (0): Conv1d(7, 100, kernel_size=(5,), stride=(1,), padding=(2,))
          (1): Conv1d(100, 100, kernel_size=(5,), stride=(1,), padding=(2,))
          (2): Conv1d(100, 100, kernel_size=(5,), stride=(1,), padding=(2,))
        )
      )
      (5): SameShapeConv1d(
        (cnns): ModuleList(
          (0): Conv1d(7, 100, kernel_size=(5,), stride=(1,), padding=(2,))
          (1): Conv1d(100, 100, kernel_size=(5,), stride=(1,), padding=(2,))
          (2): Conv1d(100, 100, kernel_size=(5,), stride=(1,), padding=(2,))
        )
      )
    )
    (dec2_cnns): ModuleList(
      (0): SameShapeConv1d(
        (cnns): ModuleList(
          (0): Conv1d(7, 100, kernel_size=(5,), stride=(1,), padding=(2,))
          (1): Conv1d(100, 100, kernel_size=(5,), stride=(1,), padding=(2,))
          (2): Conv1d(100, 100, kernel_size=(5,), stride=(1,), padding=(2,))
        )
      )
      (1): SameShapeConv1d(
        (cnns): ModuleList(
          (0): Conv1d(7, 100, kernel_size=(5,), stride=(1,), padding=(2,))
          (1): Conv1d(100, 100, kernel_size=(5,), stride=(1,), padding=(2,))
          (2): Conv1d(100, 100, kernel_size=(5,), stride=(1,), padding=(2,))
        )
      )
      (2): SameShapeConv1d(
        (cnns): ModuleList(
          (0): Conv1d(7, 100, kernel_size=(5,), stride=(1,), padding=(2,))
          (1): Conv1d(100, 100, kernel_size=(5,), stride=(1,), padding=(2,))
          (2): Conv1d(100, 100, kernel_size=(5,), stride=(1,), padding=(2,))
        )
      )
      (3): SameShapeConv1d(
        (cnns): ModuleList(
          (0): Conv1d(7, 100, kernel_size=(5,), stride=(1,), padding=(2,))
          (1): Conv1d(100, 100, kernel_size=(5,), stride=(1,), padding=(2,))
          (2): Conv1d(100, 100, kernel_size=(5,), stride=(1,), padding=(2,))
        )
      )
      (4): SameShapeConv1d(
        (cnns): ModuleList(
          (0): Conv1d(7, 100, kernel_size=(5,), stride=(1,), padding=(2,))
          (1): Conv1d(100, 100, kernel_size=(5,), stride=(1,), padding=(2,))
          (2): Conv1d(100, 100, kernel_size=(5,), stride=(1,), padding=(2,))
        )
      )
      (5): SameShapeConv1d(
        (cnns): ModuleList(
          (0): Conv1d(7, 100, kernel_size=(5,), stride=(1,), padding=(2,))
          (1): Conv1d(100, 100, kernel_size=(5,), stride=(1,), padding=(2,))
          (2): Conv1d(100, 100, kernel_size=(5,), stride=(1,), padding=(2,))
        )
      )
    )
    (dec1_outputs): ModuleList(
      (0): Linear(in_features=100, out_features=5, bias=True)
      (1): Linear(in_features=100, out_features=5, bias=True)
      (2): Linear(in_features=100, out_features=5, bias=True)
      (3): Linear(in_features=100, out_features=5, bias=True)
      (4): Linear(in_features=100, out_features=5, bias=True)
      (5): Linear(in_features=100, out_features=5, bias=True)
    )
    (dec2_outputs): ModuleList(
      (0): Linear(in_features=100, out_features=5, bias=True)
      (1): Linear(in_features=100, out_features=5, bias=True)
      (2): Linear(in_features=100, out_features=5, bias=True)
      (3): Linear(in_features=100, out_features=5, bias=True)
      (4): Linear(in_features=100, out_features=5, bias=True)
      (5): Linear(in_features=100, out_features=1, bias=True)
    )
  )
  (mod): Modulation(
    (mod_layer): SameShapeConv1d(
      (cnns): ModuleList(
        (0): Conv1d(2, 20, kernel_size=(1,), stride=(1,))
      )
    )
    (mod_final): SameShapeConv1d(
      (cnns): ModuleList(
        (0): Conv1d(20, 2, kernel_size=(1,), stride=(1,))
      )
    )
  )
  (demod): DeModulation(
    (demod_layer): SameShapeConv1d(
      (cnns): ModuleList(
        (0): Conv1d(2, 20, kernel_size=(1,), stride=(1,))
      )
    )
    (demod_final): SameShapeConv1d(
      (cnns): ModuleList(
        (0): Conv1d(20, 2, kernel_size=(1,), stride=(1,))
      )
    )
  )
)
====> Epoch: 1 Average loss: 0.68725344  running time 18.216602325439453
====> Epoch: 1 Average loss: 46.00432221  running time 19.969687700271606
====> Epoch: 1 Average loss: 50.01200005  running time 21.429754495620728
====> Epoch: 1 Average loss: 50.12000015  running time 22.23238730430603
====> Epoch: 1 Average loss: 49.71799980  running time 21.936753749847412
…
